…
use_glove_fisher False
use_glove_pretrained False
use_pause False
use_tags False
use_words False
word_emb_dropout 0.4
Initializing model...
USING BERT, not char
Better speed can be achieved with apex installed from https://www.github.com/nvidia/apex.
residual dropout
relu+residual dropout in partitioned FFN
residual dropout
relu+residual dropout in partitioned FFN
residual dropout
relu+residual dropout in partitioned FFN
residual dropout
relu+residual dropout in partitioned FFN
Initializing optimizer...
SpeechParser(
  (bert): BertModel(
    (embeddings): BertEmbeddings(
      (word_embeddings): Embedding(30522, 768)
      (position_embeddings): Embedding(512, 768)
      (token_type_embeddings): Embedding(2, 768)
      (LayerNorm): BertLayerNorm()
      (dropout): Dropout(p=0.1)
    )
    (encoder): BertEncoder(
      (layer): ModuleList(
        (0): BertLayer(
          (attention): BertAttention(
            (self): BertSelfAttention(
              (query): Linear(in_features=768, out_features=768, bias=True)
              (key): Linear(in_features=768, out_features=768, bias=True)
              (value): Linear(in_features=768, out_features=768, bias=True)
              (dropout): Dropout(p=0.1)
            )
            (output): BertSelfOutput(
              (dense): Linear(in_features=768, out_features=768, bias=True)
              (LayerNorm): BertLayerNorm()
              (dropout): Dropout(p=0.1)
            )
          )
          (intermediate): BertIntermediate(
            (dense): Linear(in_features=768, out_features=3072, bias=True)
          )
          (output): BertOutput(
            (dense): Linear(in_features=3072, out_features=768, bias=True)
            (LayerNorm): BertLayerNorm()
            (dropout): Dropout(p=0.1)
          )
        )
        (1): BertLayer(
          (attention): BertAttention(
            (self): BertSelfAttention(
              (query): Linear(in_features=768, out_features=768, bias=True)
              (key): Linear(in_features=768, out_features=768, bias=True)
              (value): Linear(in_features=768, out_features=768, bias=True)
              (dropout): Dropout(p=0.1)
            )
            (output): BertSelfOutput(
              (dense): Linear(in_features=768, out_features=768, bias=True)
              (LayerNorm): BertLayerNorm()
              (dropout): Dropout(p=0.1)
            )
          )
          (intermediate): BertIntermediate(
            (dense): Linear(in_features=768, out_features=3072, bias=True)
          )
          (output): BertOutput(
            (dense): Linear(in_features=3072, out_features=768, bias=True)
            (LayerNorm): BertLayerNorm()
            (dropout): Dropout(p=0.1)
          )
        )
        (2): BertLayer(
          (attention): BertAttention(
            (self): BertSelfAttention(
              (query): Linear(in_features=768, out_features=768, bias=True)
              (key): Linear(in_features=768, out_features=768, bias=True)
              (value): Linear(in_features=768, out_features=768, bias=True)
              (dropout): Dropout(p=0.1)
            )
            (output): BertSelfOutput(
              (dense): Linear(in_features=768, out_features=768, bias=True)
              (LayerNorm): BertLayerNorm()
              (dropout): Dropout(p=0.1)
            )
          )
          (intermediate): BertIntermediate(
            (dense): Linear(in_features=768, out_features=3072, bias=True)
          )
          (output): BertOutput(
            (dense): Linear(in_features=3072, out_features=768, bias=True)
            (LayerNorm): BertLayerNorm()
            (dropout): Dropout(p=0.1)
          )
        )
        (3): BertLayer(
          (attention): BertAttention(
            (self): BertSelfAttention(
              (query): Linear(in_features=768, out_features=768, bias=True)
              (key): Linear(in_features=768, out_features=768, bias=True)
              (value): Linear(in_features=768, out_features=768, bias=True)
              (dropout): Dropout(p=0.1)
            )
            (output): BertSelfOutput(
              (dense): Linear(in_features=768, out_features=768, bias=True)
              (LayerNorm): BertLayerNorm()
              (dropout): Dropout(p=0.1)
            )
          )
          (intermediate): BertIntermediate(
            (dense): Linear(in_features=768, out_features=3072, bias=True)
          )
          (output): BertOutput(
            (dense): Linear(in_features=3072, out_features=768, bias=True)
            (LayerNorm): BertLayerNorm()
            (dropout): Dropout(p=0.1)
          )
        )
        (4): BertLayer(
          (attention): BertAttention(
            (self): BertSelfAttention(
              (query): Linear(in_features=768, out_features=768, bias=True)
              (key): Linear(in_features=768, out_features=768, bias=True)
              (value): Linear(in_features=768, out_features=768, bias=True)
              (dropout): Dropout(p=0.1)
            )
            (output): BertSelfOutput(
              (dense): Linear(in_features=768, out_features=768, bias=True)
              (LayerNorm): BertLayerNorm()
              (dropout): Dropout(p=0.1)
            )
          )
          (intermediate): BertIntermediate(
            (dense): Linear(in_features=768, out_features=3072, bias=True)
          )
          (output): BertOutput(
            (dense): Linear(in_features=3072, out_features=768, bias=True)
            (LayerNorm): BertLayerNorm()
            (dropout): Dropout(p=0.1)
          )
        )
        (5): BertLayer(
          (attention): BertAttention(
            (self): BertSelfAttention(
              (query): Linear(in_features=768, out_features=768, bias=True)
              (key): Linear(in_features=768, out_features=768, bias=True)
              (value): Linear(in_features=768, out_features=768, bias=True)
              (dropout): Dropout(p=0.1)
            )
            (output): BertSelfOutput(
              (dense): Linear(in_features=768, out_features=768, bias=True)
              (LayerNorm): BertLayerNorm()
              (dropout): Dropout(p=0.1)
            )
          )
          (intermediate): BertIntermediate(
            (dense): Linear(in_features=768, out_features=3072, bias=True)
          )
          (output): BertOutput(
            (dense): Linear(in_features=3072, out_features=768, bias=True)
            (LayerNorm): BertLayerNorm()
            (dropout): Dropout(p=0.1)
          )
        )
        (6): BertLayer(
          (attention): BertAttention(
            (self): BertSelfAttention(
              (query): Linear(in_features=768, out_features=768, bias=True)
              (key): Linear(in_features=768, out_features=768, bias=True)
              (value): Linear(in_features=768, out_features=768, bias=True)
              (dropout): Dropout(p=0.1)
            )
            (output): BertSelfOutput(
              (dense): Linear(in_features=768, out_features=768, bias=True)
              (LayerNorm): BertLayerNorm()
              (dropout): Dropout(p=0.1)
            )
          )
          (intermediate): BertIntermediate(
            (dense): Linear(in_features=768, out_features=3072, bias=True)
          )
          (output): BertOutput(
            (dense): Linear(in_features=3072, out_features=768, bias=True)
            (LayerNorm): BertLayerNorm()
            (dropout): Dropout(p=0.1)
          )
        )
        (7): BertLayer(
          (attention): BertAttention(
            (self): BertSelfAttention(
              (query): Linear(in_features=768, out_features=768, bias=True)
              (key): Linear(in_features=768, out_features=768, bias=True)
              (value): Linear(in_features=768, out_features=768, bias=True)
              (dropout): Dropout(p=0.1)
            )
            (output): BertSelfOutput(
              (dense): Linear(in_features=768, out_features=768, bias=True)
              (LayerNorm): BertLayerNorm()
              (dropout): Dropout(p=0.1)
            )
          )
          (intermediate): BertIntermediate(
            (dense): Linear(in_features=768, out_features=3072, bias=True)
          )
          (output): BertOutput(
            (dense): Linear(in_features=3072, out_features=768, bias=True)
            (LayerNorm): BertLayerNorm()
            (dropout): Dropout(p=0.1)
          )
        )
        (8): BertLayer(
          (attention): BertAttention(
            (self): BertSelfAttention(
              (query): Linear(in_features=768, out_features=768, bias=True)
              (key): Linear(in_features=768, out_features=768, bias=True)
              (value): Linear(in_features=768, out_features=768, bias=True)
              (dropout): Dropout(p=0.1)
            )
            (output): BertSelfOutput(
              (dense): Linear(in_features=768, out_features=768, bias=True)
              (LayerNorm): BertLayerNorm()
              (dropout): Dropout(p=0.1)
            )
          )
          (intermediate): BertIntermediate(
            (dense): Linear(in_features=768, out_features=3072, bias=True)
          )
          (output): BertOutput(
            (dense): Linear(in_features=3072, out_features=768, bias=True)
            (LayerNorm): BertLayerNorm()
            (dropout): Dropout(p=0.1)
          )
        )
        (9): BertLayer(
          (attention): BertAttention(
            (self): BertSelfAttention(
              (query): Linear(in_features=768, out_features=768, bias=True)
              (key): Linear(in_features=768, out_features=768, bias=True)
              (value): Linear(in_features=768, out_features=768, bias=True)
              (dropout): Dropout(p=0.1)
            )
            (output): BertSelfOutput(
              (dense): Linear(in_features=768, out_features=768, bias=True)
              (LayerNorm): BertLayerNorm()
              (dropout): Dropout(p=0.1)
            )
          )
          (intermediate): BertIntermediate(
            (dense): Linear(in_features=768, out_features=3072, bias=True)
          )
          (output): BertOutput(
            (dense): Linear(in_features=3072, out_features=768, bias=True)
            (LayerNorm): BertLayerNorm()
            (dropout): Dropout(p=0.1)
          )
        )
        (10): BertLayer(
          (attention): BertAttention(
            (self): BertSelfAttention(
              (query): Linear(in_features=768, out_features=768, bias=True)
              (key): Linear(in_features=768, out_features=768, bias=True)
              (value): Linear(in_features=768, out_features=768, bias=True)
              (dropout): Dropout(p=0.1)
            )
            (output): BertSelfOutput(
              (dense): Linear(in_features=768, out_features=768, bias=True)
              (LayerNorm): BertLayerNorm()
              (dropout): Dropout(p=0.1)
            )
          )
          (intermediate): BertIntermediate(
            (dense): Linear(in_features=768, out_features=3072, bias=True)
          )
          (output): BertOutput(
            (dense): Linear(in_features=3072, out_features=768, bias=True)
            (LayerNorm): BertLayerNorm()
            (dropout): Dropout(p=0.1)
          )
        )
        (11): BertLayer(
          (attention): BertAttention(
            (self): BertSelfAttention(
              (query): Linear(in_features=768, out_features=768, bias=True)
              (key): Linear(in_features=768, out_features=768, bias=True)
              (value): Linear(in_features=768, out_features=768, bias=True)
              (dropout): Dropout(p=0.1)
            )
            (output): BertSelfOutput(
              (dense): Linear(in_features=768, out_features=768, bias=True)
              (LayerNorm): BertLayerNorm()
              (dropout): Dropout(p=0.1)
            )
          )
          (intermediate): BertIntermediate(
            (dense): Linear(in_features=768, out_features=3072, bias=True)
          )
          (output): BertOutput(
            (dense): Linear(in_features=3072, out_features=768, bias=True)
            (LayerNorm): BertLayerNorm()
            (dropout): Dropout(p=0.1)
          )
        )
      )
    )
    (pooler): BertPooler(
      (dense): Linear(in_features=768, out_features=768, bias=True)
      (activation): Tanh()
    )
  )
  (project_bert): Linear(in_features=768, out_features=768, bias=False)
  (embedding): MultiLevelEmbedding(
    (embs): ModuleList()
    (emb_dropouts): ModuleList()
    (extra_content_dropout): FeatureDropout()
    (layer_norm): LayerNormalization()
    (dropout): FeatureDropout()
    (timing_dropout): FeatureDropout()
  )
  (encoder): Encoder(
    (attn_0): MultiHeadAttention(
      (attention): ScaledDotProductAttention(
        (dropout): Dropout(p=0.2)
        (softmax): Softmax()
      )
      (layer_norm): LayerNormalization()
      (proj1): Linear(in_features=384, out_features=768, bias=False)
      (proj2): Linear(in_features=384, out_features=768, bias=False)
      (residual_dropout): FeatureDropout()
    )
    (ff_0): PartitionedFeedForward(
      (w_1c): Linear(in_features=768, out_features=1024, bias=True)
      (w_2c): Linear(in_features=1024, out_features=768, bias=True)
      (w_1p): Linear(in_features=768, out_features=1024, bias=True)
      (w_2p): Linear(in_features=1024, out_features=768, bias=True)
      (layer_norm): LayerNormalization()
      (relu_dropout): FeatureDropout()
      (residual_dropout): FeatureDropout()
      (relu): ReLU()
    )
    (attn_1): MultiHeadAttention(
      (attention): ScaledDotProductAttention(
        (dropout): Dropout(p=0.2)
        (softmax): Softmax()
      )
      (layer_norm): LayerNormalization()
      (proj1): Linear(in_features=384, out_features=768, bias=False)
      (proj2): Linear(in_features=384, out_features=768, bias=False)
      (residual_dropout): FeatureDropout()
    )
    (ff_1): PartitionedFeedForward(
      (w_1c): Linear(in_features=768, out_features=1024, bias=True)
      (w_2c): Linear(in_features=1024, out_features=768, bias=True)
      (w_1p): Linear(in_features=768, out_features=1024, bias=True)
      (w_2p): Linear(in_features=1024, out_features=768, bias=True)
      (layer_norm): LayerNormalization()
      (relu_dropout): FeatureDropout()
      (residual_dropout): FeatureDropout()
      (relu): ReLU()
    )
    (attn_2): MultiHeadAttention(
      (attention): ScaledDotProductAttention(
        (dropout): Dropout(p=0.2)
        (softmax): Softmax()
      )
      (layer_norm): LayerNormalization()
      (proj1): Linear(in_features=384, out_features=768, bias=False)
      (proj2): Linear(in_features=384, out_features=768, bias=False)
      (residual_dropout): FeatureDropout()
    )
    (ff_2): PartitionedFeedForward(
      (w_1c): Linear(in_features=768, out_features=1024, bias=True)
      (w_2c): Linear(in_features=1024, out_features=768, bias=True)
      (w_1p): Linear(in_features=768, out_features=1024, bias=True)
      (w_2p): Linear(in_features=1024, out_features=768, bias=True)
      (layer_norm): LayerNormalization()
      (relu_dropout): FeatureDropout()
      (residual_dropout): FeatureDropout()
      (relu): ReLU()
    )
    (attn_3): MultiHeadAttention(
      (attention): ScaledDotProductAttention(
        (dropout): Dropout(p=0.2)
        (softmax): Softmax()
      )
      (layer_norm): LayerNormalization()
      (proj1): Linear(in_features=384, out_features=768, bias=False)
      (proj2): Linear(in_features=384, out_features=768, bias=False)
      (residual_dropout): FeatureDropout()
    )
    (ff_3): PartitionedFeedForward(
      (w_1c): Linear(in_features=768, out_features=1024, bias=True)
      (w_2c): Linear(in_features=1024, out_features=768, bias=True)
      (w_1p): Linear(in_features=768, out_features=1024, bias=True)
      (w_2p): Linear(in_features=1024, out_features=768, bias=True)
      (layer_norm): LayerNormalization()
      (relu_dropout): FeatureDropout()
      (residual_dropout): FeatureDropout()
      (relu): ReLU()
    )
  )
  (f_label): Sequential(
    (0): Linear(in_features=1536, out_features=250, bias=True)
    (1): LayerNormalization()
    (2): ReLU()
    (3): Linear(in_features=250, out_features=281, bias=True)
  )
)
bert.embeddings.word_embeddings.weight torch.Size([30522, 768]) False
bert.embeddings.position_embeddings.weight torch.Size([512, 768]) False
bert.embeddings.token_type_embeddings.weight torch.Size([2, 768]) False
bert.embeddings.LayerNorm.weight torch.Size([768]) False
bert.embeddings.LayerNorm.bias torch.Size([768]) False
bert.encoder.layer.0.attention.self.query.weight torch.Size([768, 768]) False
…
